hello-world/models/hello_world_float.tflite (tflite, 2856 bytes, 5 tensors)

sequential/dense/BiasAdd/ReadVariableOp/resource f4 [16]
000000 00 00 00 00 00 00 00 00 00 00 00 00 7a c2 6f 3d
       0.0 0.0 0.0 0.058535077
000010 00 00 00 00 00 00 00 00 43 cb 53 bc 00 00 00 00
       0.0 0.0 -0.012926879 0.0
000020 00 00 00 00 ae 0e 96 3f 00 00 00 00 fc 60 1e be
       0.0 1.172323 0.0 -0.15466684
000030 00 00 00 00 b8 ee a0 bd 03 3a d8 3c 00 00 00 00
       0.0 -0.07858032 0.02639485 0.0

sequential/dense_1/BiasAdd/ReadVariableOp/resource f4 [16]
000000 fd 9e 08 3c 00 00 00 00 00 00 00 00 ee 57 16 bd
       0.008338687 0.0 0.0 -0.03670495
000010 00 00 00 00 17 30 46 bd 39 da 0e bd 3d 2a fe bc
       0.0 -0.048385706 -0.034876082 -0.031026
000020 11 92 1b 3d 64 ad f9 3c e8 6a aa bd 8a c9 6d bd
       0.037981097 0.030478187 -0.08321172 -0.05805353
000030 39 ed 96 3e e3 f4 10 3e dd 85 18 be 9e 3b c3 bc
       0.29477862 0.14155917 -0.14894815 -0.023832139

sequential/dense/MatMul f4 [16, 1]
000000 d3 f5 16 bf 7a f4 6b be b4 e7 7a be bc 45 e0 3e
       -0.5896885 -0.23042479 -0.2450245 0.43803203
000010 b8 7b 03 be 10 27 90 bd 72 55 72 3e d5 5b e0 be
       -0.12840164 -0.070387006 0.23665407 -0.43820062
000020 a2 ec 84 be b7 9c 9e be 9c 1b ef bd 0e c3 05 3f
       -0.25961787 -0.3097894 -0.11675188 0.52250755
000030 a2 79 25 be 02 f0 1e 3e d6 2d cd 3d 50 de 92 bd
       -0.1615968 0.15521243 0.10018508 -0.07171309

sequential/dense_1/MatMul f4 [16, 16]
000000 00 79 eb bd d6 b7 02 3e d2 b3 07 be 52 87 44 3e
       -0.11497688 0.1276544 -0.1325219 0.19192246
000010 b9 e8 88 3e 52 2d 07 be 1f 54 a7 3e 1c d1 bd 3d
       0.26740053 -0.13200882 0.32681367 0.092684
000020 bb 5f a0 3e d9 b5 cd 3e b3 0c ce be 14 a4 4e be
       0.31323037 0.401778 -0.40244064 -0.20179778
000030 ec 20 8e be 24 94 6c bd c1 e2 64 bd d2 a3 7e 3e
       -0.27759492 -0.057758465 -0.055880312 0.2486718
000040 83 4d 8d 3e cb ad a7 be 76 93 aa be 4c 5f 9b bd
       0.275982 -0.3274978 -0.3331563 -0.07586536
000050 62 fc 8f be 7a 62 34 be a9 d9 8f be 35 bd b2 3e
       -0.2812224 -0.17615691 -0.2809575 0.34909979
000060 b8 0d 3d be 2b c1 be be 94 1a b3 bd 80 f7 de bc
       -0.18462265 -0.3725675 -0.08745304 -0.027217627
000070 a6 78 b5 be fc 0f a8 3d 7c e0 0d be 5c b4 f6 3d
       -0.3544361 0.08206174 -0.13855165 0.120461196
000080 aa d7 24 3e ae c4 31 3e 94 06 4d be f6 6d 02 be
       0.16097894 0.17360184 -0.2002204 -0.1273726
000090 b0 34 77 bd 28 8f c3 be 47 1b b2 be 54 0d bf 3d
       -0.06035298 -0.38195157 -0.34786436 0.09328714
0000a0 aa 11 2a be 1a 80 c7 be 42 ff 09 be 3c d2 a7 be
       -0.16608301 -0.3896492 -0.1347628 -0.32777584
0000b0 ff a6 c2 3e 4b e0 90 3e 8b 14 a1 be 63 eb 9f be
       0.38018033 0.28296122 -0.31460986 -0.31234273
0000c0 53 27 4a be 67 8c 4a be 34 a9 be 3d a5 79 b6 3c
       -0.19741563 -0.19780122 0.09309617 0.022274802
0000d0 72 09 06 be de ab ae be 14 fd b9 3e 9e 24 1f 3e
       -0.1308954 -0.341155 0.36325896 0.15541312
0000e0 3c 33 9b 3d 47 a1 49 bf 21 0c 83 3e 51 83 7e 3e
       0.075781316 -0.78761715 0.2559519 0.2485478
0000f0 20 27 6c 3c ad 13 cb bc f3 81 23 3e 89 04 cd be
       0.014413625 -0.024789656 0.1596754 -0.40042523
000100 c5 f9 74 be 24 76 d2 bd 4e f7 27 3e ee 7d a1 be
       -0.23923405 -0.1027644 0.16402933 -0.3154139
000110 f0 75 0d bd cc c3 2d be 29 ee bb be 38 00 50 bd
       -0.034536302 -0.16969222 -0.3670514 -0.05078146
000120 80 84 fe 3c 88 41 84 be d2 2a 15 3e 02 98 06 be
       0.03106904 -0.25831246 0.14567116 -0.13143924
000130 04 7b c0 3d e0 b6 32 bc da 30 d0 be 0c c9 fc 3d
       0.09398463 -0.010907859 -0.4066227 0.12343034
000140 d0 64 09 be 70 69 e1 3c e4 1d e2 bd b2 cc 52 3c
       -0.13417363 0.027516097 -0.110408574 0.012866186
000150 fc 4e f6 bd 21 d5 6d be 5b 05 17 be 40 11 d6 bb
       -0.12026784 -0.23225833 -0.14748137 -0.006532818
000160 22 b9 79 3e a7 0d fd 3c 7f fe b9 be a9 f2 2e be
       0.24387029 0.030890299 -0.36326978 -0.17084755
000170 80 48 99 bb de 8a d0 be 27 75 b9 3e e4 5a 18 be
       -0.004677832 -0.40730947 0.36222193 -0.14878422
000180 f0 75 0e bd 5c 7c a6 3d 98 c3 9e bd 8a 7f a1 3e
       -0.034780443 0.081291884 -0.0775215 0.31542617
000190 cb 95 a2 3e 12 ee 51 3e 06 33 a0 3e 3f 61 bc 3e
       0.31754908 0.20500973 0.31288928 0.36792943
0001a0 32 49 7c be 40 26 63 3e ba f9 7d 3e 6e f8 73 3e
       -0.24637297 0.2218256 0.24802294 0.23825237
0001b0 ad 3c bd be 9c f4 4e be f9 ec d7 be 93 ab bc be
       -0.36960354 -0.20210499 -0.42172983 -0.3684965
0001c0 54 91 57 be 6b 73 dd 3e 3c 95 82 bd a3 a0 c7 3e
       -0.21051532 0.4325212 -0.063761204 0.38989744
0001d0 50 73 e9 bc 89 9b b6 3e 1b fa 3c be 30 52 2e bd
       -0.028497368 0.3566554 -0.18454783 -0.04255885
0001e0 86 82 20 be a1 8f 72 bf 01 db 70 be 97 b1 86 3e
       -0.1567479 -0.9475041 -0.23521043 0.26307365
0001f0 a8 d9 19 bd a1 81 a8 3e c6 43 02 3f bf 39 d9 3e
       -0.03756109 0.329114 0.50884664 0.4242687
000200 38 15 3e bd e0 1b a7 bd 1c b3 c7 bd 95 f7 91 3d
       -0.046406955 -0.081596136 -0.09750959 0.07127301
000210 80 98 f1 bc b3 f0 c7 3e 25 5f 8f 3e 90 76 dc be
       -0.029491663 0.39050826 0.28002277 -0.43059206
000220 63 03 b6 3e f8 55 1f bf 70 13 7b 3d 16 78 a4 3c
       0.3554946 -0.6224055 0.061297834 0.020076793
000230 b2 c9 75 3e 96 15 a5 bd a4 ba 81 3e a9 2d cb be
       0.24002722 -0.08060758 0.25337708 -0.39683273
000240 10 8e 4c bd 18 e2 9f bd 42 42 74 3e 16 97 1c 3d
       -0.04994017 -0.07806796 0.238534 0.038230024
000250 c6 24 c6 be 2a 7d a0 be 1e 5e be bd 8d 34 d3 3e
       -0.3869993 -0.31345493 -0.09295295 0.4125103
000260 4d 6f be 3e 50 e8 e7 bc 10 ce af bc 8c 5c 14 3e
       0.3719429 -0.028309017 -0.021460563 0.14488429
000270 04 e6 b2 3d 75 41 67 bd 1a 50 d6 3c 2f 02 94 3e
       0.08735278 -0.05645891 0.026161242 0.28907916
000280 b2 06 d1 be 24 a8 c0 bd 0c 49 c9 bd 3a cc 9c 3e
       -0.4082542 -0.0940707 -0.09828386 0.30624563
000290 1a 0c 18 3e 2c 9e b4 3d 72 d8 95 bb 02 8b cf be
       0.14848366 0.088192314 -0.0045729214 -0.40535742
0002a0 a0 7a 15 3d 20 30 f6 be da 5c 3d 3e e2 58 84 3d
       0.036493897 -0.4808359 0.18492451 0.064622656
0002b0 bc 20 82 be 78 0d b1 be 32 7b 1b 3f 00 eb 21 3d
       -0.254156 -0.34580588 0.60734856 0.039530754
0002c0 56 15 38 3e a5 10 d2 be 26 44 33 be 88 48 81 bd
       0.17976889 -0.41028324 -0.17506465 -0.06312662
0002d0 80 ba d7 3b 9b 4d 82 3e c1 bc a2 3e 0b d2 c3 be
       0.006583512 0.25449833 0.31784633 -0.38246188
0002e0 40 b1 52 3d ba e9 23 3f e2 f4 8c be 73 ca c2 3e
       0.05143857 0.64028513 -0.2753058 0.38045081
0002f0 03 4f c7 3e 16 4c 9d be 40 fb 20 3e 6e b6 0f 3e
       0.3892747 -0.3072211 0.15720844 0.14034435
000300 34 37 a1 bd 1c ed 92 3d 9e 8a ab be 14 12 83 bf
       -0.07871857 0.07174131 -0.33504194 -1.0239892
000310 8f 35 d4 3e 31 97 82 3e 20 71 e7 be 2c 55 9b bd
       0.41447112 0.25505975 -0.45203495 -0.075846046
000320 71 75 79 be 47 09 cd 3e 8c e5 db 3d dc c2 17 3e
       -0.24361207 0.4004614 0.10737142 0.14820427
000330 ea 5c 0e 3e 97 70 12 3f 50 ef e3 3e 88 6f 17 bd
       0.13902631 0.5720305 0.44518518 -0.0369716
000340 5c 2f dc 3d 90 1a 98 bd a6 ac 00 3e 39 f0 9c be
       0.107512206 -0.074269414 0.1256586 -0.30652025
000350 40 e5 da bc 53 ee be be 86 1b 1c bf 2a 84 2e be
       -0.026720643 -0.37291202 -0.609795 -0.17042604
000360 0d b2 cd 3e f2 72 6e 3e d3 f7 a4 3e 46 8f f9 be
       0.40174904 0.23286036 0.32220325 -0.4874212
000370 22 b9 03 be 40 c1 68 be 54 9e a8 be 43 5b 87 3e
       -0.12863591 -0.22729969 -0.32933295 0.26436815
000380 30 ef f8 bd 46 26 cb be 20 b9 49 3c 19 8d c1 3d
       -0.121549964 -0.39677638 0.012312204 0.0945074
000390 e8 62 0e bd 30 d4 b8 3c dc 47 20 be 7e 43 96 be
       -0.034762293 0.022562116 -0.15652412 -0.29348367
0003a0 80 d5 73 bb cc 27 90 3f f8 f0 38 3d 69 ef 11 3e
       -0.0037206113 1.1262145 0.04515168 0.14251484
0003b0 2f d1 d9 be 9c 65 7d 3e 89 c6 92 be 3c 80 d6 3d
       -0.42542407 0.24745792 -0.28667095 0.104736775
0003c0 ed a0 63 be b2 07 56 3e ab b6 c8 3e ab 0d bb 3e
       -0.22229357 0.20901373 0.39201865 0.36533865
0003d0 08 41 d9 be 38 1a 1d bd 07 fd 30 3e 12 13 ac be
       -0.42432427 -0.038355082 0.17284022 -0.336083
0003e0 52 e8 bc be 8f d7 9b 3e 7a 8c 1d 3e b2 68 83 3d
       -0.36895996 0.30437896 0.15385619 0.064164534
0003f0 48 2d 74 be a1 19 cd be 9b fe ba be 4e 4c cf be
       -0.23845398 -0.40058616 -0.36522374 -0.40487903

sequential/dense_2/MatMul f4 [1, 16]
000000 2a 99 29 3f 28 23 bb bd 20 fd f1 3c ac 64 9c be
       0.66249335 -0.09137565 0.029539645 -0.30545557
000010 f4 db 0a 3e 1a 2e b7 3d a4 35 ed 3e 19 04 01 bf
       0.13560468 0.0894434 0.46329987 -0.5039688
000020 80 08 f1 be a4 72 bf be 36 b3 af be 8e dd 81 3e
       -0.47076797 -0.3739215 -0.34316415 0.25364345
000030 c3 44 a9 bf ef 7a d6 be 27 32 d1 3e 97 f9 98 3e
       -1.322411 -0.41890666 0.40858576 0.29877922
